checkpoints/functional_v1/context.pth (torch, 15158 bytes, 7 tensors)

conv1d.weight f4 [64, 1, 5]
00000000: 6f13 97be a41c f3be 2e14 063e e167 24bd
00000010: 527a 07be 65e4 843e fc67 cc3d a702 33be
00000020: 65ef d43e 08f6 be3c b4b9 d33e 2ab6 cc3e
00000030: d1f2 7f3c e269 7f3e 8b6a 7bbe 836e 7ebe
00000040: adbc ef3e 8e1d 803e 0b8f 25bc 5784 1f3e
00000050: 5020 42be 766a 193e e179 9d3d f632 e63e
00000060: 382f 813d 84e1 e53d f67b e73e 98ff 5cbe
00000070: c3e8 cabe d18a 1c3e 2090 23be 3084 893e
00000080: ff3e 133e e9e3 fb3e 647b 063e e3a8 fbbe
00000090: 35e1 b5bc 8099 5ebe 9e4a bebe ec2b a9be
000000a0: 7b0c dfbc f825 a73c b3e0 57be 783b 9f3c
000000b0: b7d1 973e 74e9 593e e607 e4bc 7087 1f3e
000000c0: a410 a5be 1a6f c93e 48b4 e9be 91bb f0be
000000d0: f172 b7be c426 3abe aa77 b33e 6713 d0be
000000e0: d943 9d3e 3d63 1e3d 3939 d93e 24c2 7e3e
000000f0: 536d e13e 9c2d b13e 3f8a b43d 483f ac3d
00000100: 1ec3 b7be 3748 8a3e 18a0 9fbd d5ff c8be
00000110: d50b 00bf d603 57bd ba7e adbd 3174 d33e
00000120: cd31 803e de8e b0be f0e2 a43e bbcc 6bbe
00000130: 6f93 e5bd ce8a cebe f870 f33d cd3c 1d3c
00000140: be4c b9be 13ca 073e 5687 94bd defc cbbe
00000150: 3135 cebe f39d 72be 3434 a4be 5c6e 36be
00000160: 8e32 bb3d 3d10 27bd edc1 ce3d a1be e73d
00000170: aa0f af3e fa00 a83e 8fa4 cb3e a320 313d
00000180: 7f18 953e 3966 bb3d c199 513e d176 9bbe
00000190: c4a1 fa3d 80ed 833e 2537 af3e 911a f73e
000001a0: d668 b3be d9d2 093e 7efc 1ebe b163 9fbe
000001b0: 277f f83c ced6 72be 1021 bcbe 11de 58be
000001c0: cde3 eabe 9aeb 7bbd bc85 8fbe 8e25 03bf
000001d0: 5171 f13b 5021 9c3d 4f5b 143e e500 c1be
000001e0: ef24 d03e 4f17 583e 6d6c 06bd e27a 9dbe
000001f0: c56c d6be 5f10 a0be 775b e8be dc59 5d3e
00000200: 91ec d03c 5761 b9be 6bd5 cf3e 6671 e4be
00000210: 7f7e 003e 6c74 5e3d eb16 93bd 15c6 e13e
00000220: be58 4e3e 52c0 743e ff68 093f 1d5e ae3d
00000230: 0bd4 863e 3fee 8a3c b682 b73e e53d a23e
00000240: eecb ec3c 18fa e8be e2dc 103e 9fe8 90bd
00000250: 2f16 1bbe b771 cabe 8aec bbbd 192d e23e
00000260: 5134 dabe 1390 673e 6995 dabe ad5a 9f3e
00000270: 823f 983e 4be1 82be faeb 2c3e cfcf 86be
00000280: e4b3 c6be 8ebe 83be 9ae7 cf3e 56ea b73e
00000290: 21a8 ce39 0aef 42bc 8829 f53e 668d cfbc
000002a0: 5abc 9d3e 4c99 923e 5fc5 c03e ace0 c1bd
000002b0: 5a51 bdbe 6565 2abd f00e e13e 76ad 953e
000002c0: 851c c03d 9b20 a0be 66ba 093e 18f5 d2bd
000002d0: 0583 763e 69a5 67bc 77bb d73d 7de1 21bf
000002e0: 0ff5 cebc 6c56 12be 75d9 293e 1556 e9bd
000002f0: e085 38bd 27f0 833e 88e2 213e 8171 8d3e
00000300: 34ee 473e fa9d b2be 1973 ddbe 58ae 103e
00000310: 64f9 013f 71b4 4dbe eef9 b0be f1d1 923d
00000320: 21d2 733e 25d7 df3d 258d 693e 40b7 5abe
00000330: 7c8e debe 166f cfbe 09b6 983e 9461 a13d
00000340: f428 2a3b affe ac3e 4d0f 7bbe 9d4a 7bbb
00000350: c645 ce3e bda8 ef3e 0130 ad3e 2cdc 50bd
00000360: d81b d23d 432a a1bd 98b1 69bd c14c 573d
00000370: 455b b43e 4b1d 853e 2497 8dbe 4e55 5f3d
00000380: beeb d9bc 9fc0 d5be 06e9 c73e 64fd ccbe
00000390: ea11 9ebe 569c 4fbe f3b9 0c3e 13df 073e
000003a0: 7f02 8c3e 880b 1b3d 2aac 9a3d 3f9b dabd
000003b0: 4af7 523e 35da cd3d 3fbf fd3e 2c41 c7be
000003c0: 419b c53e b48e 87be 9e95 303e 022f cb3d
000003d0: ddb3 66be 801e a1bd 381b c0be ce47 e73d
000003e0: 383e 173d 4ad8 a9be 045c 9bbe 0f81 0c3e
000003f0: 3954 40be 5e82 8abe 39c2 75bd 4129 bcbd
-0.29507014 -0.4748279 0.13093635 -0.04013813 -0.13230255 0.259555 0.09980771 -0.1748148
0.41588894 0.023310676 0.41352618 0.3998273 0.015621857 0.24942735 -0.24552362 -0.24846844
0.46823636 0.25022548 -0.010104905 0.15577827 -0.18957639 0.14982018 0.07689262 0.44960755
0.063078344 0.11224654 0.45211762 -0.21581876 -0.39630708 0.1528733 -0.15972948 0.26858664
0.143795 0.4919732 0.13133007 -0.49152288 -0.022202114 -0.21738243 -0.37166303 -0.33041322
-0.02722763 0.020403847 -0.2108181 0.019437537 0.29652187 0.21280462 -0.027835798 0.15579009
-0.32239258 0.39342576 -0.45645356 -0.47018102 -0.3582988 -0.1817885 0.35052234 -0.40639803
0.30715826 0.03866886 0.4242647 0.24878746 0.4402872 0.3460511 0.08815431 0.084105074
-0.3589105 0.2700822 -0.07794207 -0.39257684 -0.50018054 -0.052493893 -0.08471437 0.41299585
0.25037995 -0.34484 0.3220439 -0.23027317 -0.11209761 -0.40340275 0.118867815 0.009597016
-0.36191362 0.13260679 -0.07252376 -0.3984136 -0.40274957 -0.23693065 -0.32071078 -0.17815536
0.09140502 -0.04078697 0.10095582 0.113156565 0.34191638 0.32813245 0.39773986 0.043244015
0.29120252 0.09150357 0.20468809 -0.30364087 0.122378856 0.25767136 0.3422176 0.48262456
-0.3504092 0.13459338 -0.15526006 -0.31130746 0.030334068 -0.23714754 -0.36743975 -0.21178462
-0.45876923 -0.061503984 -0.2803172 -0.5122918 0.0073682447 0.07623541 0.14487956 -0.37695995
0.40653178 0.21102642 -0.032818247 -0.30757815 -0.4187986 -0.3126249 -0.45382282 0.2161631
0.025503429 -0.36207077 0.40592512 -0.44617766 0.12548254 0.054310247 -0.07182106 0.44096437
0.2015104 0.2390149 0.53675836 0.085140444 0.2633365 0.016959308 0.35841912 0.31687847
0.028905835 -0.45503306 0.1414676 -0.07075619 -0.15145181 -0.39539883 -0.091759756 0.44175032
-0.4261804 0.22613554 -0.42692116 0.31123868 0.29735953 -0.2556251 0.16886893 -0.2633042
-0.3880912 -0.2573132 0.40606385 0.35920972 0.00039416648 -0.011897812 0.47883248 -0.025335979
0.30807763 0.2863258 0.37650582 -0.09466681 -0.3697613 -0.041600604 0.4395671 0.29233903
0.0938044 -0.31274876 0.13450012 -0.10300654 0.24073417 -0.014138558 0.10533803 -0.6323469
-0.025263337 -0.1429078 0.1658686 -0.11393372 -0.04504955 0.2576916 0.15809071 0.2762566
0.19524461 -0.34886152 -0.43251875 0.14129007 0.50771165 -0.20088364 -0.3456568 0.071689494
0.23810627 0.109297074 0.22807749 -0.21358967 -0.43468082 -0.4051444 0.29826382 0.0787994
0.0025964351 0.33788058 -0.24517556 -0.0038344034 0.40287608 0.46808425 0.33825687 -0.050991222
0.10259217 -0.07869389 -0.057054132 0.052563433 0.35225883 0.2599891 -0.27654374 0.054524712
-0.026601668 -0.4174852 0.3904497 -0.40037072 -0.30873042 -0.20274481 0.13742809 0.1326869
0.27345654 0.037852794 0.07552369 -0.10674142 0.20602146 0.10051385 0.49559972 -0.3891691
0.38595012 -0.2647606 0.17244574 0.099210754 -0.2252955 -0.078671455 -0.37520766 0.112929925
0.03692457 -0.33172828 -0.3034364 0.13721107 -0.18782128 -0.27052587 -0.05999968 -0.09187556

conv1d.bias f4 [64]
00000000: a96c 1ebc 635c 063e 14ec 3f3e 6a83 9e3d
00000010: 4003 9b3e 3d54 c43e ced1 613e 9943 a53e
00000020: a72d 7f3e 62a3 903e 3d4b f9be a9cf 85bb
00000030: c57a d13e 9233 84bd 83e1 333e 321d c9be
00000040: 33cd b6be 9ffb 2abd 8fc3 fabd 5df4 32bd
00000050: 3314 d93e 1021 bebd b517 8d3e bd94 a33e
00000060: 9fec 25be f8a3 513d 4e70 91be fbd9 d43c
00000070: 4edf 5bbe c248 a83e fceb 07be 64ae 423c
00000080: edec 5ebe b6fb 063b 6823 ee3e 7469 d3be
00000090: 51a7 853e fee8 13be f24a abbe a76d ac3e
000000a0: c3aa 52be 9fd9 e6bb 117a 893e 93df 99be
000000b0: de8a 2cbe 625b d3bd fcd3 72bd 6ab5 453e
000000c0: cdc1 a23e 09fe e33c 1a56 b03d 8f56 a43e
000000d0: 3a91 30be e1c2 f5be 7e53 8fbe 994d 27be
000000e0: d4c2 9fbd 2ef7 60be 3dac 563e e564 3c3e
000000f0: 167a 28be d9b4 103d 789f 8dbe 2d70 603e
-0.009669461 0.1312118 0.187424 0.07739909 0.30275917 0.3834552 0.2205269 0.32278135
0.24919759 0.2824965 -0.48690215 -0.004083593 0.40913978 -0.06455149 0.17566495 -0.39280087
-0.3570343 -0.04174387 -0.12244331 -0.043690074 0.42398223 -0.0928365 0.2755715 0.31949416
-0.16203545 0.051181763 -0.28405994 0.025982847 -0.21471903 0.3286801 -0.13273615 0.011882398
-0.21770068 0.0020596809 0.46511388 -0.41291392 0.26104215 -0.14444348 -0.33455616 0.33677408
-0.20572953 -0.0070449854 0.26850942 -0.30053386 -0.16849849 -0.10320164 -0.059284195 0.19307485
0.31788483 0.027831094 0.086101726 0.3209729 -0.172429 -0.48000243 -0.27993387 -0.16338195
-0.078008324 -0.21969292 0.20964141 0.18397863 -0.16452822 0.03532872 -0.27660728 0.21917792

decoder.0.weight f4 [32, 64]
00000000: 4c08 08b9 652c f1bc c08a 33bc ed31 a53c
00000010: e326 d13c be35 bfbd 05b0 a4bd a472 5a3d
00000020: ed9a ac3b 421e 1ebc feb8 df3c 79fa bdbc
00000030: 81de 613d c600 903b a345 993d 8b23 b3bc
00000040: 08d4 583d 5f16 1c3d 9af0 183e f33c 0a3e
00000050: e86f c63d 65df a83d 6bfe c9bd 440c 03bd
00000060: d65d 1bbe ba76 50bc 89ab d73d 2606 5cbd
00000070: f76d d73d 04cb 1fbe 5470 983d 9afb dfbc
00000080: 66ff b3bd e5c8 043e 10f2 36bd 2c51 ad3b
00000090: a13c 95bd acec 9cbd 5997 0dbe 3528 a2bd
000000a0: c0fe bcbd f4c2 febb 82ea 103d 44f0 ad3b
000000b0: c2cb 253e 23b6 03be b05e 233c 514c 8bbc
000000c0: 8b7a d5bc 906e 08bd f490 adbd fc10 cf3d
000000d0: c627 f7bd 2e33 983d 9481 803d 3b90 ffbc
000000e0: 29fc 38bd 1ade 293d af9a e63c 03c9 adbc
000000f0: 0a36 0a3d 15ae a2bb e28c 813d 8af5 4abd
00000100: 5e8f 96bd 7d18 4cbc 6804 99bd 1a80 d83c
00000110: 794d b43d 2ba3 1d3e 293c 91bd 5fe3 c43d
00000120: ea2b e33c 6541 2a3e 5bd5 993d ebdf b4bb
00000130: b80d 913d f685 093e f758 3b3e 0871 08bd
00000140: 5805 12bd 7b5a c43d fdf2 59bc 843a 91bd
00000150: f972 833c f389 ebbc 9e93 973d 1469 43bd
00000160: 9693 4b3d faa1 3ebd 48da 5c3d 287b 79bd
00000170: ec99 07bc 6b19 bbbd 4c71 8d3d dcd6 883c
00000180: bcf6 1ebe d91f e63c 6a1d 69bd ac8a 233d
00000190: 8766 f73b 25f9 fabd c8a7 9cbd 57bf f0bb
000001a0: 719f 92bd 21a0 b03d 84a9 fabd 03d8 56bd
000001b0: fa81 ebbd 112b 253d 95e6 b63d d4fb c03d
000001c0: 7587 0c3e 2796 b4bd 0123 c2bd b268 3b3e
000001d0: c649 84bd 8a47 a7bd e914 c53d c865 02bc
000001e0: ec23 6c3d c5d6 52be 78fa fa3c 1a1d de3c
000001f0: 7331 243c b012 d83c 5b7b 48bd d262 3b3b
00000200: 94d0 6abb 9489 463d 8024 ddbc b451 97bc
00000210: f3b5 053d ff9b e5bc a30f 48bd caa2 9b3d
00000220: e12b 6bbc a41c 78bc ac07 033d 0b52 02be
00000230: ee82 d3bd 5486 67bc 81b5 84bd 02d1 fabb
00000240: 4a63 febd 0f81 82bd 4601 083e 042e 863d
00000250: bc03 433d 0cf9 acbd 8c6c 2fbd 447d acbd
00000260: 8eda ce3d e94f cf3c a587 393c 2988 b5bd
00000270: 3fbe 053d 8f9b 713d a2d6 ec3b 587d ef3d
00000280: 6805 8b3d 6b92 c3bc 1a1e ae3d db66 3cbd
00000290: 1e6e d7bd 6db2 a7bd b886 e73d 16c4 e63d
000002a0: a5eb ea3d 5e2f a3bc 9a46 b13d 2b33 2cbc
000002b0: c01a 093d ba6f c3bd 5705 81bc 11b8 573d
000002c0: 85ce 94bc 3f41 e03d 57e8 9a3d 3610 2a3d
000002d0: 02bd 8b3d 1577 82bd 1c46 fdbc 3f93 afbd
000002e0: ae39 a3bd 4905 e2bd c299 afbc 1eae a73d
000002f0: 280e 46bd a66a a43d 6eaa eb3c 5760 3cbd
00000300: f5b1 68bd 3803 c2bd 5671 dabd 933d 2abd
00000310: 516f 4d3c d959 9e3d bc22 eabd 7bd2 a03d
00000320: da4d 243b d4c6 933d 4a2b aabd 988f 483d
00000330: 8c37 c6bd 63b3 a23d 702f ea3d f876 10bb
00000340: da19 8fbd 41a4 26bd 722e 06bd 55b7 bdb9
00000350: 363b 99bd 755c 28bd ff88 873d cc40 663c
00000360: 93a1 4b3d af3a 7abd bed8 8c3d 5fbe 343d
00000370: d6f5 2fbc 62d5 b73d ecbd 063e 499b f63c
00000380: 053b a8bd 3d09 cd3d e2cc ddbd a27b a6bd
00000390: 03f7 a63b 02ff d5bd e3dc b8bc 9b67 bbbd
000003a0: 4f01 963d bdea 483c bbbd ad3d 78ba efbc
000003b0: 14be ec3d 59ed 663d 6d00 8dbd ea58 773a
000003c0: 7dd9 103d 01a5 1d3d 29d0 153d 1700 8f3c
000003d0: 4d31 2cbd 6adf 253d 0297 af3d 18bd f0bd
000003e0: efad 443d 271e 69bd debe f63d f110 d83d
000003f0: eda5 d63d e41c 1f3e f2be ed3d 64be cd3d
-0.00012973062 -0.029440114 -0.010958374 0.020165408 0.025531238 -0.093364224 -0.080413856 0.053331986
0.005267492 -0.009650769 0.02730989 -0.023190724 0.055143837 0.0043946235 0.07483985 -0.021867534
0.052936584 0.038107272 0.14935532 0.13499813 0.09689313 0.08245734 -0.098629795 -0.03199412
-0.15172514 -0.012723619 0.105307646 -0.0537168 0.10519021 -0.15604788 0.074433 -0.027341653
-0.08788948 0.1296726 -0.044664443 0.0052892175 -0.07286955 -0.07662329 -0.13827266 -0.07917825
-0.09228277 -0.007774705 0.035379894 0.005308183 0.16191009 -0.12862448 0.009971306 -0.017004164
-0.02605941 -0.033308566 -0.08474913 0.101106614 -0.12068133 0.07431637 0.06274715 -0.031196704
-0.045162354 0.04147158 0.02814993 -0.021214014 0.033742942 -0.0049646 0.063256994 -0.04955057
-0.07351564 -0.01245701 -0.074715436 0.026428271 0.08803839 0.15394275 -0.07091553 0.0961368
0.0277309 0.16626509 0.075113975 -0.005519857 0.07082695 0.13430008 0.18295656 -0.03331092
-0.035649627 0.0958757 -0.013302562 -0.07091239 0.016046034 -0.028752303 0.074012026 -0.047707632
0.049701296 -0.04654119 0.053919107 -0.060908467 -0.008276444 -0.091357075 0.06906375 0.016704015
-0.15523809 0.028091358 -0.056912817 0.03992717 0.007550064 -0.12254552 -0.07649189 -0.0073470282
-0.07159317 0.08624292 -0.12239364 -0.0524521 -0.114994004 0.040324274 0.08930699 0.094230324
0.13723548 -0.08817702 -0.09479333 0.18301657 -0.06459384 -0.08167942 0.09623129 -0.007958837
0.057651445 -0.2058974 0.030637011 0.027113486 0.010021555 0.026376098 -0.048945766 0.0028592837
-0.0035829889 0.04847105 -0.026994944 -0.018471576 0.032644223 -0.028028486 -0.048843037 0.07599409
-0.014353723 -0.015143547 0.03198974 -0.1272661 -0.10327707 -0.014131147 -0.064799316 -0.00765431
-0.12421282 -0.06372272 0.13281736 0.065517455 0.047610983 -0.084459394 -0.042828128 -0.0842233
0.1010028 0.025306659 0.011323844 -0.08863861 0.032652136 0.058986243 0.0072277347 0.11693829
0.067881405 -0.023873528 0.08501835 -0.045996528 -0.1051905 -0.08188329 0.113049924 0.11267869
0.11470727 -0.019920047 0.08656044 -0.010510246 0.033472776 -0.095427945 -0.015749617 0.052665774
-0.018164882 0.10949945 0.075638466 0.041519366 0.0682316 -0.06370369 -0.03091722 -0.08573007
-0.07969986 -0.11036164 -0.021435622 0.08187507 -0.048353344 0.08028154 0.02876779 -0.045990314
-0.056810338 -0.0947327 -0.10666148 -0.041562628 0.012538747 0.07731981 -0.11432406 0.07852646
0.0025070817 0.07215658 -0.08309038 0.048965067 -0.096785635 0.079443716 0.11434829 -0.0022043567
-0.06987353 -0.04068399 -0.032759137 -0.00036185482 -0.07481997 -0.0411038 0.06617927 0.014053535
0.049714636 -0.06109112 0.06877278 0.044126865 -0.010739764 0.089762464 0.13158387 0.030103343
-0.08214382 0.10011528 -0.10830094 -0.0812905 0.005095364 -0.104490295 -0.022566264 -0.091506205
0.07324468 0.012262997 0.08483454 -0.02926372 0.11559692 0.056378696 -0.06884847 0.00094355515
0.035363663 0.038487438 0.03657547 0.017456098 -0.042039204 0.040496267 0.08573724 -0.11754817
0.04801744 -0.05691352 0.12048124 0.10550106 0.104808666 0.15538365 0.116086856 0.1004608

decoder.0.bias f4 [32]
00000000: 4fd6 6cbc 2d73 233e b405 84bd 09e3 013e
00000010: 0bf6 9f3d 6afd dbbc d2fc 83bd defd 6b3d
00000020: 5675 d2bd d0da ca3d d196 9d3b 054d e43d
00000030: d560 ac3c a09b f43d e3fb a3bd b09b 0b3e
00000040: c1d1 0a3e fce5 1f3e 7ef3 11bd 926b d23d
00000050: ab45 76be 7a51 10be efab 773d c4ed d83d
00000060: 9e6b bdbd fa4b 413d 0f58 903d a992 a33d
00000070: 84e7 533d 32b1 ee3d 0674 a9bc a8b9 c7bd
-0.014455392 0.15961905 -0.064464 0.12684263 0.07810601 -0.026854236 -0.06444706 0.057615153
-0.10276286 0.099050164 0.0048092385 0.11147503 0.021042267 0.119437456 -0.08007028 0.13633609
0.13556577 0.15615076 -0.035632603 0.10274424 -0.24050014 -0.14093581 0.060466703 0.10592225
-0.09249042 0.047191598 0.07048046 0.079869576 0.051734462 0.11654891 -0.020685207 -0.09752208

decoder.2.weight f4 [8, 32]
00000000: 1ee9 1cbe 7cd1 aa3d 8d35 6abd bd2c d1bc
00000010: 603c c1bd c635 45bc 7be2 2ebe 4c44 133e
00000020: b5ea 893c 147f e0bc 9dba 15be 1295 f83d
00000030: f0ba 24bc 2924 14be 9a71 edbd 3c4a 72bc
00000040: 96c0 f93d e692 81bb 3a6b 30bd 8b7d 2b3d
00000050: a091 523e ed58 b33d 6aa6 1ebd 11bc da3d
00000060: 121e 923d 7c67 ebbd 27c4 0d3d 4019 af3d
00000070: 15ef 9a3d 862e 83bb 095a 023e 9d81 253e
00000080: 5be1 9dbd 45ff 79bd ef16 1e3d eab9 10be
00000090: 7918 d43b 676b 773c 6cf7 003e 750e dfbd
000000a0: b257 103e 02ae fa3d 31b6 733d 2939 bd3d
000000b0: 5e23 ebbd 9259 38bd 6594 1dbe aca1 eb3c
000000c0: c0e0 92bd 2d3c b33d 1d30 1f3d b1cc b73c
000000d0: 45fd ca3d 308a 123e 59a4 d43c 707c a3bb
000000e0: f25a 193e a042 ec3c 8acd 923d 8455 db3c
000000f0: 78f5 733e fd67 883d da45 283e 3dac 93bd
00000100: 76b6 d93d a067 2ebe 0336 30be 928b e7bd
00000110: e0ff e9bc 059e c03d df3b 003e 87d4 083e
00000120: dd58 b53d 3de0 fc3d bea3 08be 53a0 4f3e
00000130: 00e2 623d 2898 e9bd 82bc 31be 9335 a0be
00000140: 25ed 20be bdd6 4c3d 2a5f 4a3d ead0 21be
00000150: eaf7 763d f60b 3d3e 9498 6d3e 2c0a 35be
00000160: 01fa 183e 7241 1e3d 974a 83bd 242e 78be
00000170: 1ae7 fb3d 8334 3bbc 1560 5fbd 64bc ff3d
00000180: 07be 813d 07fc 533e b3b5 4d3c 15dc a63d
00000190: 6fd9 51bd 7e85 b13d 6088 363e ef6a 053c
000001a0: e937 5cbc d8b2 fc3c c5a3 82bc b6f4 f73d
000001b0: 1641 f7bd ba34 223e 1530 78bd 6e4c be3c
000001c0: 777d 573e 4ecd 453e 214a 473e f2ba 003e
000001d0: d957 0cbe 84c4 0f3e 9adb 9d3d e161 503e
000001e0: 6ba5 ae3d fdca e2bd 1414 ba3d c7fa 2c3c
000001f0: 8052 d8bd 7365 e3bd 85d7 42bd 891a 76be
00000200: 1845 82bd 41b3 8cbd c0b8 0b3e 7d43 dcbd
00000210: c6f8 e4bc e46e 50be cd87 3e3d c856 3a3e
00000220: a697 e7be 4f27 1e3e 74d6 f13c 7171 ca3a
00000230: b38e 253e f883 743b 862b 483e 0bda bd3d
00000240: 7ecd 9abd ce4a 473e b20d 173e 8708 fbbd
00000250: e994 a9be 9627 36be 31fd 32bd 970b 84bd
00000260: 225b 393e 3268 0c3e 8f72 a1bd 08fc 17be
00000270: f994 e83d ab21 21be dab2 253e aaa0 113e
00000280: dfe8 30bd 1aa3 913d 2d73 a4bd c7ae a6bd
00000290: 83df fd3d 7be1 303e d3ca 243e 1cf4 483c
000002a0: 42a1 333e 68f6 5c3e 4ba5 89bd d314 9ebd
000002b0: 1efc e7bd 948d 0cbd 7dc7 003d f865 04be
000002c0: c62a 05bb 6bb5 23be fca8 cc3b 74ea 1c3e
000002d0: 0224 97bc 82c4 9ebd 54c0 4e3e 1899 003e
000002e0: e7f5 2c3d d9d8 c5bd 81ef 823d 5752 84bd
000002f0: 96f8 0d3e 19fb 84bd ee88 4d3e 9e8f 593e
00000300: b0ef 6c3d be58 a1bd ff93 783c 9a81 b53d
00000310: 9041 073e 6a37 47bd a408 a93d cac1 5b3e
00000320: 212b 07bd f429 fa3d 3493 0e3e 91fe 18be
00000330: d917 3d3e 7281 65be 7843 12be 012a 0a3e
00000340: 128b a43b 8e4e a2bd 5ca6 13be c433 293e
00000350: 12b4 f93d a055 b93c aee6 4dbe c898 95bc
00000360: f216 2dbd 8285 c83c 0b2f 493e 9b7f adbd
00000370: 037d 22be 1b5a 2fbe fd7f 0b3e 84d3 28bd
00000380: 1407 463e 9df1 223c 8d03 4cbd fd2a 38bc
00000390: 0a5e 163d ad70 d1bd 9bd0 423e 91e9 4cbc
000003a0: 26bf 5ebe c999 2e3e 5572 a8bc 965c fbbd
000003b0: 5482 463e c797 013e da94 8eb9 a3f6 8dbd
000003c0: 1e55 63bd 9f9e 8e3b b32d ba3d 2ef2 e43d
000003d0: da08 11be 44c8 fb3d d2af 963b b232 cd3d
000003e0: 7f2e 233e 55a5 133e 5cf2 c2bd f893 043e
000003f0: 8592 af3d 5b37 7abd f80e b1bd 021b f03c
-0.15323302 0.08340737 -0.057179976 -0.025534028 -0.09435344 -0.012036746 -0.17078583 0.14381522
0.01683555 -0.027404346 -0.14621969 0.12137808 -0.010054335 -0.14466919 -0.115939334 -0.014788207
0.12194936 -0.0039542792 -0.04307101 0.041867774 0.20563364 0.087571956 -0.038732924 0.10680402
0.07134642 -0.114943475 0.034610894 0.08549738 0.075651325 -0.0040033488 0.12729658 0.16162725
-0.07708999 -0.06103446 0.03859609 -0.1413342 0.006472644 0.01510129 0.12594384 -0.10891429
0.14095953 0.122402206 0.059499923 0.09239418 -0.11481355 -0.045007296 -0.1538864 0.028763615
-0.07171774 0.08751712 0.038864244 0.022436472 0.099115886 0.14310527 0.025957273 -0.0049891993
0.14976099 0.028840363 0.0716811 0.026774175 0.23824108 0.06660459 0.16432896 -0.07210586
0.10630505 -0.17031717 -0.17208104 -0.11305918 -0.028564394 0.0940514 0.12522839 0.13362323
0.0885484 0.123474576 -0.13343713 0.20276003 0.05539131 -0.114059746 -0.17357066 -0.31290874
-0.15715463 0.050009478 0.04940716 -0.1580235 0.060295023 0.18461594 0.23202735 -0.17679662
0.14939119 0.038636632 -0.06410711 -0.24236351 0.122999385 -0.011426094 -0.05453499 0.124871045
0.06335073 0.2070161 0.0125555275 0.08147446 -0.05123275 0.0866804 0.1782546 0.008143171
-0.013441064 0.030846998 -0.015947232 0.12107222 -0.12072961 0.15840426 -0.06059273 0.023229804
0.21043955 0.19316599 0.19461872 0.12571314 -0.13705386 0.14039809 0.07707901 0.20349838
0.08527645 -0.11073873 0.09085861 0.010557837 -0.105626106 -0.11103334 -0.047568817 -0.2403356
-0.06360835 -0.068701275 0.13644695 -0.1075506 -0.027950656 -0.20354801 0.04651623 0.18197167
-0.45232886 0.15444683 0.029521205 0.0015445185 0.16167717 0.0037310105 0.19547853 0.09270104
-0.07558726 0.1946213 0.14751318 -0.12257486 -0.33121422 -0.17788538 -0.043698493 -0.06447523
0.1810117 0.13711622 -0.078831784 -0.14842236 0.11356539 -0.157355 0.16181508 0.14221445
-0.043190833 0.07111187 -0.080297805 -0.08138805 0.12396147 0.17273514 0.16092996 0.012265231
0.17541984 0.21578372 -0.0672098 -0.07718816 -0.113273844 -0.034314707 0.031440247 -0.12929523
-0.0020319684 -0.15987174 0.0062457304 0.15323812 -0.018449787 -0.07752325 0.20190555 0.125584
0.0422267 -0.09660501 0.06393338 -0.064610176 0.1386436 -0.064932056 0.20071766 0.21246192
0.05784577 -0.07878254 0.015172004 0.0886261 0.13208604 -0.04863683 0.08253601 0.21460643
-0.033000115 0.12215033 0.13923341 -0.1494086 0.18466128 -0.2241266 -0.1428355 0.13492586
0.0050214613 -0.07925139 -0.1441893 0.16523653 0.12192549 0.022623837 -0.20107529 -0.018261328
-0.04225821 0.024477724 0.19646852 -0.084716044 -0.15868 -0.17124216 0.13623042 -0.041217342
0.19338638 0.0099453 -0.049808074 -0.011240718 0.036710776 -0.10226569 0.19024889 -0.012506858
-0.21752605 0.17050852 -0.02056233 -0.12273519 0.19385654 0.12655555 -0.00027195254 -0.06931808
-0.055501096 0.004352405 0.09090748 0.111790046 -0.14163533 0.12294057 0.004598596 0.10019435
0.15935706 0.14418538 -0.09518883 0.1294707 0.08572868 -0.061087947 -0.08645433 0.029309753

decoder.2.bias f4 [8]
00000000: cd4b 0dbc 3de5 d63d ccff c53d 54a7 4dbd
00000010: fa38 e2bd f5bd 17be 7314 afbc 8b8e ecbd
-0.008624029 0.104929425 0.0966793 -0.050208405 -0.11046024 -0.14818557 -0.021372056 -0.115506254

decoder.4.weight f4 [1, 8]
00000000: f560 88be f5fc 12be d18a d6be 4b9d bf3e
00000010: 94fd 763e 3275 48be 6d3f b43e 718a 143e
-0.26636472 -0.14354308 -0.41902784 0.37424693 0.2412017 -0.19575956 0.3520464 0.14505936
